…
          "base_uri": "https://localhost:8080/"
        },
        "id": "fHE7wf040BDU",
        "outputId": "9c49b493-d44e-42e1-8119-84537d1c4a53"
      },
      "execution_count": 79,
      "outputs": [
        {
          "output_type": "stream",
          "name": "stdout",
          "text": [
            "Model: \"sequential_5\"\n",
            "_________________________________________________________________\n",
            " Layer (type)                Output Shape              Param #   \n",
            "=================================================================\n",
            " conv2d_30 (Conv2D)          (None, 32, 32, 32)        896       \n",
            "                                                                 \n",
            " batch_normalization_30 (Bat  (None, 32, 32, 32)       128       \n",
            " chNormalization)                                                \n",
            "                                                                 \n",
            " conv2d_31 (Conv2D)          (None, 32, 32, 32)        9248      \n",
            "                                                                 \n",
            " batch_normalization_31 (Bat  (None, 32, 32, 32)       128       \n",
            " chNormalization)                                                \n",
            "                                                                 \n",
            " max_pooling2d_15 (MaxPoolin  (None, 16, 16, 32)       0         \n",
            " g2D)                                                            \n",
            "                                                                 \n",
            " dropout_20 (Dropout)        (None, 16, 16, 32)        0         \n",
            "                                                                 \n",
            " conv2d_32 (Conv2D)          (None, 16, 16, 64)        18496     \n",
            "                                                                 \n",
            " batch_normalization_32 (Bat  (None, 16, 16, 64)       256       \n",
            " chNormalization)                                                \n",
            "                                                                 \n",
            " conv2d_33 (Conv2D)          (None, 16, 16, 64)        36928     \n",
            "                                                                 \n",
            " batch_normalization_33 (Bat  (None, 16, 16, 64)       256       \n",
            " chNormalization)                                                \n",
            "                                                                 \n",
            " max_pooling2d_16 (MaxPoolin  (None, 8, 8, 64)         0         \n",
            " g2D)                                                            \n",
            "                                                                 \n",
            " dropout_21 (Dropout)        (None, 8, 8, 64)          0         \n",
            "                                                                 \n",
            " conv2d_34 (Conv2D)          (None, 8, 8, 128)         73856     \n",
            "                                                                 \n",
            " batch_normalization_34 (Bat  (None, 8, 8, 128)        512       \n",
            " chNormalization)                                                \n",
            "                                                                 \n",
            " conv2d_35 (Conv2D)          (None, 8, 8, 128)         147584    \n",
            "                                                                 \n",
            " batch_normalization_35 (Bat  (None, 8, 8, 128)        512       \n",
            " chNormalization)                                                \n",
            "                                                                 \n",
            " max_pooling2d_17 (MaxPoolin  (None, 4, 4, 128)        0         \n",
            " g2D)                                                            \n",
            "                                                                 \n",
            " dropout_22 (Dropout)        (None, 4, 4, 128)         0         \n",
            "                                                                 \n",
            " flatten_5 (Flatten)         (None, 2048)              0         \n",
            "                                                                 \n",
            " dense_10 (Dense)            (None, 128)               262272    \n",
            "                                                                 \n",
            " dropout_23 (Dropout)        (None, 128)               0         \n",
            "                                                                 \n",
            " dense_11 (Dense)            (None, 10)                1290      \n",
            "                                                                 \n",
            "=================================================================\n",
            "Total params: 552,362\n",
            "Trainable params: 551,466\n",
            "Non-trainable params: 896\n",
            "_________________________________________________________________\n"
          ]
        }
…
